Results/model.pth (torch, 349373 bytes, 20 tensors)

momentum_buffer f4 [10, 1, 5, 5]
0	0xbbe20fe8	-0.006898869
1	0xbbbbcfcc	-0.0057315584
2	0xbb9f4dac	-0.004861554
3	0xbb8b2ae0	-0.0042470545
4	0xbad4e294	-0.0016241842
5	0xbb76ac8c	-0.0037639467
6	0xbb98bb1d	-0.0046609775
7	0xbb851330	-0.004061125
8	0xbaa847f5	-0.0012838828
9	0xbb10311a	-0.0022001923
10	0xbb656e7f	-0.0035008488
11	0xbb691386	-0.0035564615
12	0xbb46f570	-0.0030358694
13	0xbb3e7c4b	-0.0029065784
14	0xbb479e98	-0.003045952
15	0xba7a760c	-0.00095543335
16	0xba96d904	-0.0011508767
17	0xbb1f6f26	-0.0024327724
18	0xbb63eb8e	-0.0034777853
19	0xbbbea951	-0.005818524
20	0xb9ac7154	-0.00032890833
21	0xba975caa	-0.0011548002
22	0xbb4048bc	-0.0029340228
23	0xbbd9ba47	-0.0066445204
24	0xbbc8a7d3	-0.006123522
25	0x3b9255c8	0.0044657923
26	0x3b283db4	0.0025671544
27	0x3af26ee0	0.0018496178
28	0x3b0df780	0.0021662414
29	0x3a845d90	0.0010098685
30	0x3b6af72a	0.0035852888
31	0x3b5f0a50	0.0034033246
32	0x3b058aa4	0.0020376826
33	0x3afbea40	0.0019219592
34	0x3b5464f4	0.0032408806
35	0x3b79acd8	0.0038097408
36	0x3b2e7c8e	0.0026624533
37	0x3b516c62	0.003195547
38	0x3b63c824	0.0034756744
39	0x3b8c1ad8	0.004275661
40	0x3b3bad96	0.00286374
41	0x3b44eb70	0.0030047558
42	0x3b802b3b	0.0039114035
43	0x3b5ea8b4	0.0033975067
44	0x3b7da91a	0.0038705529
45	0x3b729d0c	0.0037019877
46	0x3b820ec9	0.0039690477
47	0x3b602360	0.0034200773
48	0x3b29f9f2	0.0025936333
49	0x3b72683e	0.0036988403
50	0xbbb4cd6d	-0.0055176527
51	0xbb808997	-0.003922652
52	0xbb483d26	-0.0030554025
53	0xb92d7172	-0.00016540827
54	0x3a80c384	0.0009823893
55	0xbbc44270	-0.0059893653
56	0xbb81e9a1	-0.0039646183
57	0xbb17aefe	-0.0023145075
58	0xbaa88e86	-0.0012859858
59	0x39f3b7d8	0.00046485546
60	0xbbdff8e3	-0.0068350895
61	0xbbf4645a	-0.007458252
62	0xbb9b6ddb	-0.0047433204
63	0xbb364cce	-0.0027816775
64	0xba36e97e	-0.0006977542
65	0xbc24758c	-0.010037791
66	0xbc15ab28	-0.009135045
67	0xbbe27468	-0.0069108494
68	0xbba91088	-0.0051594414
69	0xbb5b68e0	-0.0033479258
70	0xbbfa5c54	-0.007640401
71	0xbbf96572	-0.00761097
72	0xbbe2d60f	-0.0069224904
73	0xbb8e9c1c	-0.004352106
74	0xbb9baea7	-0.004751045
75	0xba1ee760	-0.0006061699
76	0x3a993daf	0.0011691357
77	0x3ab8de00	0.0014104247
78	0x3a72a252	0.0009255755
79	0x3a6c4505	0.000901297
80	0x39fb2598	0.0004790246
81	0x3a05a610	0.00050982926
82	0x3ae302e2	0.0017319585
83	0x3b4b262c	0.0030998094
84	0x39fb5bb5	0.00047942778
85	0x3ad26152	0.0016050732
86	0x3b057888	0.0020366032
87	0x3a78fdc8	0.00094982656
88	0x3a93db8a	0.0011280638
89	0xb9ca01f8	-0.0003852991
90	0x3b43a189	0.002985092
91	0x3b8cba94	0.004294703
92	0x3b1bdb06	0.0023781671
93	0x3ae0dda4	0.0017155898
94	0xb99e6b10	-0.00030215876
95	0x3b963ecb	0.004585122
96	0x3b97138a	0.0046104835
97	0x3b09959e	0.002099372
98	0x3a67c4f4	0.0008841299
99	0xba7f07f9	-0.0009728666
100	0xbb1526ec	-0.0022758795
101	0xbb211126	-0.0024576872
102	0xbb207eac	-0.0024489565
103	0x3a05f2dc	0.0005109736
104	0x3ba5ccb6	0.005059804
105	0x3a39ee02	0.0007092656
106	0xbace6fd3	-0.0015749879
107	0x3a0064dc	0.0004897842
108	0x3b7d52e6	0.0038654148
109	0x3bdb798e	0.00669784
110	0xbab6a2c6	-0.0013934008
111	0xbb19b1fb	-0.0023452032
112	0x39de2fd6	0.0004237878
113	0x3b6b98c1	0.0035949203
114	0x3bc7cdd2	0.0060975337
115	0xba8345ec	-0.0010015345
116	0xba3dd458	-0.00072414195
117	0xba21ceae	-0.000617246
118	0x3b1f2eec	0.0024289442
119	0x3b269146	0.002541618
120	0xbb5c5e89	-0.0033625683
121	0xbb084423	-0.0020792566
122	0x3a8d37fd	0.0010774132
123	0x3b8338ad	0.004004559
124	0x3b247f7d	0.0025100403
125	0x3bb42897	0.0054980027
126	0x3b9ae9c5	0.0047275745
127	0x3a8ac158	0.0010586185
128	0x3a721bc0	0.00092357025
129	0xbb26d786	-0.0025458052
130	0x3bf7018b	0.0075380257
131	0x3ba98e72	0.0051744515
132	0x3af31f18	0.0018548695
133	0xba503f40	-0.00079439953
134	0xbb4d0422	-0.003128298
135	0x3beb6776	0.0071839644
136	0x3b8b33a6	0.0042481003
137	0x3b7ef9d4	0.0038906233
138	0xb9eab300	-0.00044765323
139	0xbb695f92	-0.0035609943
140	0x3bd8f774	0.0066212956
141	0x3b975d3e	0.0046192696
142	0x3b623be8	0.003452057
143	0x39f8e060	0.00047469418
144	0x36a00400	4.7688372e-06
145	0x3bdb7f34	0.0066985134
146	0x3bc1ae44	0.0059106667
147	0x3b51cef4	0.0032014223
148	0xb62b4000	-2.5518239e-06
149	0xbb21ee8e	-0.002470884
150	0xb9bfb1f4	-0.00036562944
151	0xb8c25200	-9.2659146e-05
152	0x38db81c0	0.000104669016
153	0xb9b825b8	-0.00035123318
154	0x380557c0	3.1791395e-05
155	0x3a8cc612	0.0010740182
156	0xbad125a8	-0.0015956657
157	0xba5cb49a	-0.0008419246
158	0x3a122cfe	0.00055761624
159	0x3b0aac58	0.0021159854
160	0x3a74faec	0.00093452516
161	0x38784880	5.919533e-05
162	0x3a7648d8	0.000939501
163	0x3a1fe274	0.0006099113
164	0x3b085209	0.002080085
165	0x3b8702eb	0.004120221
166	0x3b7f2402	0.0038931374
167	0x3b594c00	0.0033156872
168	0x3ae32f2c	0.0017332784
169	0x3a262247	0.0006337505
170	0x3bc29341	0.005937964
171	0x3b3a836d	0.0028459684
172	0x3b0b91c9	0.0021296612
173	0xb8fbda20	-0.000120092416
174	0xb8d3fd00	-0.00010108389
175	0xb94d8486	-0.00019599692
176	0x3b8bc6f1	0.004265659
177	0x3b9e7a1a	0.004836333
178	0x3ba6ceff	0.005090594
179	0x3bf93d37	0.0076061743
180	0x3b6b8ffc	0.0035943976
181	0x3bbe357f	0.005804717
182	0x3c0af703	0.008481744
183	0x3b93369b	0.0044925935
184	0x3bc7e33c	0.0061000865
185	0x3baa3c0b	0.005195146
186	0x3c02730f	0.007962002
187	0x3bae7dc6	0.005325052
188	0x3bdab7ef	0.0066747586
189	0x3bab60bb	0.005230037
190	0x3bc8377e	0.006110131
191	0x3baa4c46	0.005197081
192	0x3ba859ed	0.005137673
193	0x3b024076	0.0019874847
194	0x3b226729	0.0024780727
195	0x3bf9b43a	0.0076203616
196	0x3bd3a708	0.0064591207
197	0x3b7df708	0.0038751978
198	0xb9d6fec0	-0.00041007064
199	0xbb0d3404	-0.0021545896
200	0x3bba0cab	0.0056777797
201	0x3c008cbf	0.0078460565
202	0x3bed8df0	0.0072495863
203	0x3bc76b4d	0.0060857893
204	0x3b5bcc55	0.003353854
205	0x3bcc1646	0.006228241
206	0x3c207368	0.00979314
207	0x3c089fea	0.008338908
208	0x3ba042b5	0.0048907646
209	0x3b28a60e	0.0025733742
210	0x3c05592e	0.008138938
211	0x3c24deb2	0.01006286
212	0x3bfa17d5	0.0076322355
213	0x3b6c70f9	0.003607808
214	0x3ac6e589	0.0015174608
215	0x3c1bc357	0.009507022
216	0x3bf2cdf4	0.0074098054
217	0x3b98ea0b	0.004666572
218	0x3ae2fdc6	0.0017318062
219	0xba78f15d	-0.0009496415
220	0x3c0505ee	0.0081190895
221	0x3bc26f7a	0.005933699
222	0x39e13a70	0.00042958884
223	0xbb08e979	-0.0020891114
224	0xbb1ed6de	-0.0024236958
225	0x3c05f703	0.008176568
226	0x3ba36d2e	0.0049873805
227	0x3b2edf78	0.002668349
228	0xba6b3c70	-0.00089735445
229	0xbaa5b120	-0.0012641288
230	0x3c08df87	0.008354074
231	0x3bb1d064	0.0054264534
232	0x3b7743b0	0.0037729554
233	0xbb4d955c	-0.0031369543
234	0xbbb60c88	-0.005555693
235	0x3c2656cf	0.010152533
236	0x3b95534c	0.004557049
237	0x3a87fc90	0.0010374952
238	0xbba192be	-0.004930823
239	0xbbccc153	-0.006248632
240	0x3c265817	0.010152838
241	0x3bcfe26e	0.006344131
242	0x386b4600	5.609356e-05
243	0xbbbc53d5	-0.0057472982
244	0xbbd8750b	-0.0066057495
245	0x3bf55490	0.0074868873
246	0x3b91855c	0.0044409465
247	0xba114780	-0.00055419654
248	0xbbab2b98	-0.0052237026
249	0xbc02d543	-0.007985416

momentum_buffer f4 [10]
0	0xbb398f4a	-0.0028314167
1	0xbc14925a	-0.009068096
2	0xbb218e66	-0.0024651526
3	0x3ad35e8f	0.0016126203
4	0x3ae19bee	0.0017212608
5	0x3c1fa2f6	0.009743443
6	0x3b494f6a	0.00307175
7	0x3baa3266	0.0051939962
8	0x3b2ec788	0.0026669223
9	0x3c618900	0.0137655735

momentum_buffer f4 [20, 10, 5, 5]
0	0xb921ac78	-0.00015418406
1	0x3a039b9f	0.0005020443
2	0x3a13154f	0.000561078
3	0x3abde692	0.0014488271
4	0x3a8e70fa	0.001086741
5	0xba08da0e	-0.0005220481
6	0xba4545b9	-0.0007525343
7	0x393f6f78	0.00018256705
8	0x3a712932	0.0009199559
9	0x3af726c3	0.0018856156
10	0x3ad9539d	0.0016580705
11	0xb922c6f4	-0.0001552364
12	0xb7e20980	-2.6945723e-05
13	0x3a180de5	0.000580041
14	0x3b055fe4	0.0020351345
15	0x3ad0f5ec	0.0015942431
16	0x3ac98258	0.0015373928
17	0x3acd0570	0.0015641879
18	0x3b32c65a	0.0027278871
19	0x3a51bde1	0.00080010114
20	0x3adb0e3f	0.001671262
21	0x39dc24bc	0.0004198904
22	0x3b19aa33	0.0023447394
23	0x3ad1e11e	0.0016012525
24	0x3af30ba1	0.0018542894
25	0x3a55b402	0.00081521284
26	0x3acd1ee5	0.0015649466
27	0x3aa4ae74	0.0012564198
28	0xb8872018	-6.4432796e-05
29	0x393bcb06	0.00017909342
30	0x3ae72381	0.0017634482
31	0x3aab2ec4	0.0013060202
32	0x3a4283f6	0.00074201764
33	0x3a36e022	0.00069761474
34	0x39a7db6d	0.00032016207
35	0x3ab69cc8	0.0013932223
36	0x3a35d78a	0.000693672
37	0x39678e73	0.00022082943
38	0x3a7c8a5c	0.0009633654
39	0xb8ab1ff4	-8.159867e-05
40	0x3aa71160	0.0012746267
41	0x398ceb90	0.0002687839
42	0x3a282f7c	0.0006415767
43	0x3a0194e5	0.00049431465
44	0x3a491d46	0.00076719036
45	0x3aa04d30	0.0012230035
46	0x3a195636	0.0005849333
47	0x3822d2b8	3.8820057e-05
48	0x3a9b4654	0.0011846521
49	0x3a048557	0.00050552696
50	0xb9ad13d4	-0.00033011904
51	0x3840ac80	4.593702e-05
52	0xb9fe95d0	-0.00048558274
53	0x3b2206bf	0.002472326
54	0x3b489e61	0.003061198
55	0x3a39fe56	0.0007095089
56	0x39f2fea0	0.00046347547
57	0x3a8c387c	0.0010697986
58	0x3b09e071	0.0021038319
59	0x3983f2d4	0.00025167188
60	0x3b00445b	0.0019571993
61	0x3aec99b7	0.0018051182
62	0x3b7f6cca	0.0038974755
63	0x3b0dacf1	0.0021617974
64	0x3a5ddef6	0.0008463705
65	0x3a336e9a	0.0006844789
66	0x3ada8a6e	0.0016673335
67	0x3b244964	0.0025068158
68	0x3b023f05	0.0019873988
69	0x3ad5d0ca	0.0016312834
70	0x3ae37cd9	0.0017355933
71	0x3aa56b8c	0.0012620552
72	0x3aec89d2	0.0018046445
73	0x39631b54	0.00021658588
74	0x3a067a46	0.00051299145
75	0x3a1be210	0.00059464667
76	0xb9765788	-0.00023492996
77	0xb9afe024	-0.000335456
78	0x3b4843eb	0.003055806
79	0x3ad37836	0.0016133848
80	0xb9d96080	-0.00041461363
81	0xbaa235ec	-0.0012375689
82	0xba043036	-0.00050425844
83	0x3a5aa6fe	0.0008340924
84	0x3a8db925	0.0010812624
85	0x3a9fb353	0.001218418
86	0x3a09ed76	0.00052615197
87	0xb7a74c70	-1.9943545e-05
88	0x39ce67a7	0.0003936861
89	0x3b0bf274	0.002135423
90	0x3a937e4b	0.0011252848
91	0x3a9fd70f	0.001219483
92	0x3ac335ce	0.0014893354
93	0x3b1d4ef9	0.002400337
94	0x3b0a9042	0.0021143113
95	0x3aa3cc4b	0.0012496797
96	0x3aad1932	0.0013206361
97	0x39522ee0	0.00020044623
98	0x3a9f2737	0.0012142424
99	0x3b09c490	0.0021021701
100	0xba36740a	-0.000696004
101	0xb98aedec	-0.00026498677
102	0x3a4c11b8	0.0007784623
103	0x3a731fd3	0.00092744565
104	0x3ac46807	0.0014984616
105	0x3b0fe2d6	0.0021955273
106	0x3b46ee21	0.0030354338
107	0x3b3b4a37	0.002857817
108	0x3a3dcd45	0.00072403654
109	0xb9b03fa2	-0.00033616746
110	0x3ae6ba20	0.0017603077
111	0x3b2d02e1	0.002639942
112	0x3b1f0ddc	0.0024269735
113	0x3a51f155	0.00080086786
114	0x3a85e5d3	0.0010215588
115	0x3b04961e	0.0020231078
116	0x3b26775c	0.0025400734
117	0x3aa415bd	0.0012518686
118	0xb8736d30	-5.8037404e-05
119	0x3a5f3781	0.00085150456
120	0x39bf78d6	0.0003652039
121	0x3ac33f2e	0.0014896148
122	0x3a906639	0.0011016793
123	0x3ab4e09a	0.0013799847
124	0x3afb14ed	0.0019156017
125	0x394f78cb	0.00019786057
126	0xb993be21	-0.00028179682
127	0xbafac36f	-0.001913173
128	0x3ab42112	0.0013742766
129	0x3b8f45a0	0.0043723136
130	0x3ac53cd0	0.0015048031
131	0x3a659871	0.0008758372
132	0xbaa7cf3a	-0.0012802847
133	0x3b380d4b	0.0028084095
134	0x3b5f52fa	0.0034076557
135	0x3b077056	0.0020666323
136	0x3a1fe23c	0.000609908
137	0x3a2c7a6c	0.00065795216
138	0x3b58b878	0.0033068936
139	0x3b1fe666	0.0024398803
140	0x3b099399	0.0020992516
141	0x3a2c858a	0.0006581178
142	0x3ad44546	0.0016194961
143	0x3b419694	0.0029539214
144	0x3af2cdc8	0.0018524462
145	0x3aeb0445	0.001793035
146	0x3a837aa4	0.0010031057
147	0x3a9451fb	0.0011315936
148	0x3ae49654	0.0017439821
149	0x3ac8d186	0.0015321232
150	0xb928004a	-0.00016021836
151	0xba40a3a0	-0.0007348601
152	0xb9d29e16	-0.00040172104
153	0x3adb9d68	0.0016755285
154	0x3b295022	0.0025835116
155	0x3aa7b923	0.0012796264
156	0xb9bf1f48	-0.00036453665
157	0xba0c8277	-0.0005360017
158	0xb83661a0	-4.34831e-05
159	0x3ad86ac9	0.0016511317
160	0x3ac25814	0.0014827275
161	0x3a7a02a5	0.0009537137
162	0x3af57394	0.0018726462
163	0x3aed4568	0.001810235
164	0x3ae6e21d	0.0017614994
165	0x3b01a70f	0.0019783413
166	0x3a869fc6	0.0010271005
167	0x3a34bf0d	0.0006894924
168	0x3af5eca4	0.0018762541
169	0x3abc9e8d	0.0014390514
170	0x3ae3c161	0.0017376357
171	0x3a81fdea	0.0009917591
172	0x3b02cb39	0.0019957556
173	0x3acbe68b	0.0015556378
174	0x3a6d8eac	0.0009062092
175	0x39f0b490	0.00045910897
176	0xbb04586c	-0.0020194305
177	0xbad846b5	-0.0016500565
178	0x3b247b52	0.0025097919
179	0x3b3a73ca	0.0028450363
180	0x3af6fefd	0.0018844303
181	0x393e5250	0.00018150476
182	0x3b3a605e	0.0028438787
183	0x3ba9f8aa	0.005187114
184	0xb9325d90	-0.00017010258
185	0x3aa030ef	0.0012221615
186	0x39d5eb68	0.00040801917
187	0x3badc73f	0.005303293
188	0x3b79c106	0.0038109436
189	0x3aa14401	0.0012303592
190	0x3a9b6870	0.0011856686
191	0x3affa7b0	0.0019504931
192	0x3b414a44	0.0029493729
193	0x3a1e5dbc	0.0006041189
194	0x3a89f489	0.0010525148
195	0x3a496ebb	0.00076840416
196	0x3b05e6a2	0.0020431657
197	0x3b1e79f1	0.002418157
198	0x3917f378	0.00014491181
199	0x3abac1fd	0.0014248487
200	0x3a071077	0.0005152295
201	0x3a1dc16c	0.0006017897
202	0xbaabb057	-0.0013098818
203	0x3aa3274e	0.0012447627
204	0x3b199f02	0.0023440723
205	0xba447d98	-0.00074955216
206	0xbab7234c	-0.0013972311
207	0xbae38e64	-0.0017361161
208	0x3b1674c1	0.0022957774
209	0x3b487cd8	0.003059199
210	0x3a83f9b6	0.0010068926
211	0xba603c69	-0.00085539237
212	0xba8544a4	-0.0010167551
213	0x3b1025dd	0.0021995225
214	0x3acb1407	0.001549364
215	0x3a2cd002	0.0006592275
216	0x3968551c	0.0002215695
217	0x3b2a1163	0.0025950305
218	0x3b341c7e	0.0027482803
219	0x3ad0bc6a	0.0015925292
220	0x3ac95b0e	0.001536222
221	0x3a15ca4c	0.00057140435
222	0x3a4ce0b8	0.0007815468
223	0x3a66bb58	0.000880172
224	0x3a4409b2	0.00074782514
225	0x39dddcb9	0.00042316856
226	0x3a842258	0.0010081036
227	0xba86c498	-0.0010281978
228	0xb8cf54d6	-9.886331e-05
229	0x3b5e0d81	0.003388256
230	0x3a06f8fb	0.00051487953
231	0x3a87c1a8	0.0010357397
232	0xba6f69eb	-0.00091329095
233	0x399c76f7	0.00029843274
234	0x3b5f3f17	0.0034064704
235	0x3ad4ac36	0.0016225639
236	0x3ac8db1d	0.001532409
237	0xba293936	-0.00064553635
238	0xb846ed84	-4.7428082e-05
239	0x3adc6dac	0.0016817353
240	0x3a60f544	0.00085814693
241	0x3a614b77	0.0008594314
242	0x386e3348	5.679138e-05
243	0x3ace949c	0.0015760842
244	0x3a7d29aa	0.00096573925
245	0x3a942f57	0.0011305612
246	0x3a2567ea	0.0006309735
247	0xba6de250	-0.0009074556
248	0x3a020ec9	0.00049613096
249	0x3a085e9b	0.00052020856
250	0x3a7a76fc	0.0009554473
251	0x3adf679e	0.001704443
252	0x3a7f6a94	0.00097433594
253	0x387797a8	5.903063e-05
254	0xba047f92	-0.000505441
255	0x3aab5cb8	0.0013073897

momentum_buffer f4 [20]
0	0x3b0501af	0.0020295193
1	0x3b31fe2c	0.0027159555
2	0xbb94af87	-0.004537526
3	0xb93997d4	-0.00017699535
4	0x3b9e1be2	0.0048251012
5	0xbb994113	-0.004676947
6	0xbb6a8d98	-0.0035789963
7	0xba384340	-0.0007029064
8	0x3951a0b0	0.00019991654
9	0xb9b02d70	-0.0003360319
10	0x3bb88a41	0.0056317155
11	0xbb09934e	-0.0020992341
12	0xbbb77d8a	-0.005599682
13	0xb802e2d0	-3.120565e-05
14	0x3bd0a7ac	0.0063676443
15	0x3a9bdc78	0.0011891266
16	0xb9fe6233	-0.0004851982
17	0xba7a35ba	-0.0009544749
18	0x3bb97bc4	0.005660506
19	0x3b543863	0.0032382242

momentum_buffer f4 [100, 320]
0	0xb996968b	-0.00028722393
1	0xb9271130	-0.00015932764
2	0x38e0c1b4	0.00010717232
3	0xb98f5ebc	-0.00027345668
4	0xba13fb34	-0.0005645037
5	0xb85a6880	-5.2072573e-05
6	0x3969406c	0.0002224461
7	0xb9f5791c	-0.00046820275
8	0xb98e2b29	-0.00027116507
9	0xb91cdc72	-0.00014959442
10	0x390833b2	0.00012989229
11	0xb7504520	-1.24138605e-05
12	0xb8e8b7c6	-0.000110968525
13	0x381dab72	3.7591388e-05
14	0xb8dfa9cc	-0.00010665096
15	0xb7ff51d0	-3.0436466e-05
16	0xb90a5ce2	-0.00013195307
17	0xb994f944	-0.00028414477
18	0x38f8e64b	0.00011868457
19	0x393fa701	0.00018277393
20	0xb943f76c	-0.00018688821
21	0xb936250d	-0.00017370675
22	0x38df7ef1	0.00010657113
23	0xb75cda30	-1.3163823e-05
24	0x38f2159b	0.000115434836
25	0xb990237c	-0.00027492258
26	0xb8483e5b	-4.774179e-05
27	0xb9cfb47a	-0.00039616582
28	0x38d838f2	0.000103102895
29	0x39639cbc	0.00021706795
30	0x39e2e7c1	0.0004327875
31	0xb9a1d7c6	-0.00030869077
32	0xba4f0018	-0.00078964373
33	0xba186da8	-0.000581468
34	0xba471138	-0.00075938134
35	0xba87bd62	-0.0010356123
36	0xba5de782	-0.00084649783
37	0xba15eaa6	-0.0005718864
38	0xba279360	-0.0006392505
39	0xba49bd2c	-0.00076957303
40	0xba564123	-0.0008173158
41	0xba804fd9	-0.0009789421
42	0xba1892f7	-0.00058202393
43	0xba56a1d5	-0.0008187567
44	0xba82ed92	-0.0009989014
45	0xba783748	-0.0009468687
46	0xba5ac232	-0.00083449774
47	0xba5d6485	-0.00084454595
48	0xb7bf1238	-2.2777458e-05
49	0xb80eb653	-3.402524e-05
50	0x396a51ac	0.00022346404
51	0x38995d66	7.313005e-05
52	0xb9a9e40b	-0.00032404097
53	0xba06a130	-0.0005135713
54	0xb89841f2	-7.260208e-05
55	0xb99c8581	-0.00029854107
56	0xb8f83558	-0.000118354976
57	0xb9c55db8	-0.00037644594
58	0x39768274	0.00023508986
59	0xb94bbbf3	-0.00019429605
60	0x38948c0e	7.083277e-05
61	0x3885fb9c	6.3888e-05
62	0x373814cc	1.0972097e-05
63	0xb9b9faaa	-0.0003547271
64	0xba16ed1b	-0.00057573774
65	0xb9aa3d92	-0.000324708
66	0xb9a7e3ae	-0.00032022357
67	0xb92de395	-0.00016583347
68	0xb9b23fa4	-0.00033998222
69	0xb9d3c01d	-0.00040388192
70	0xba4841c9	-0.0007639197
71	0xb9c5386d	-0.0003761681
72	0xb9b59348	-0.00034632743
73	0xb8ac27e8	-8.209032e-05
74	0xba1b0ece	-0.0005914987
75	0xb6be3140	-5.6681747e-06
76	0x37126a10	8.726973e-06
77	0xb83d8844	-4.518802e-05
78	0xba7a66ba	-0.00095520506
79	0xb9ab86c3	-0.00032716067
80	0xba131666	-0.00056109426
81	0xba1aedb6	-0.00059100555
82	0xb93ced74	-0.00018017535
83	0xb9faaff8	-0.00047814823
84	0xba271fc7	-0.00063752796
85	0xba3d37c0	-0.0007218085
86	0xb9bd7afa	-0.00036140514
87	0xb9476682	-0.00019016306
88	0xb9d8a690	-0.0004132283
89	0xba578fee	-0.00082230463
90	0xb9cda8ae	-0.00039226323
91	0xb9a3e8ad	-0.0003126314
92	0xb9928a37	-0.00027950268
93	0xba102b32	-0.00054996007
94	0xb99c1e2c	-0.00029777118
95	0xb9ff3c0c	-0.0004868213
96	0x3822608c	3.8713726e-05
97	0xb9442bd8	-0.0001870835
98	0x385a989c	5.211738e-05
99	0xb50d8540	-5.27205e-07
100	0xb7984e4b	-1.815627e-05
101	0x39646f81	0.00021785313
102	0xb9268e0f	-0.00015883915
103	0x3980de82	0.00024579844
104	0xb996ee69	-0.0002878786
105	0xb8fbd6e5	-0.0001200864
106	0xb9733b74	-0.00023196434
107	0x3843de95	4.669892e-05
108	0xb6907d68	-4.3061336e-06
109	0xb9272421	-0.0001593982
110	0xb830be18	-4.213871e-05
111	0xb928521c	-0.00016052317
112	0xba5c320f	-0.00083997933
113	0xbaab38bd	-0.0013063174
114	0xba805727	-0.0009791598
115	0xba80fef3	-0.0009841606
116	0xba9bfcaa	-0.0011900861
117	0xba7b853c	-0.00095947436
118	0xba77e87f	-0.0009456947
119	0xba66c50f	-0.0008803168
120	0xba4e1f72	-0.0007862962
121	0xba880df0	-0.001038013
122	0xba5f0ffe	-0.0008509158
123	0xba740f2c	-0.0009310122
124	0xba9f9a71	-0.0012176764
125	0xba8c75f0	-0.00107163
126	0xba4b5bf6	-0.00077575387
127	0xba59b268	-0.00083044777
128	0xb98017f3	-0.00024431906
129	0x3903da43	0.00012574442
130	0xb89521c1	-7.111161e-05
131	0x3912a51e	0.00013985156
132	0xb8eab01d	-0.00011190793
133	0xb9180716	-0.0001449849
134	0xb93f871c	-0.00018265512
135	0xb95f6cb7	-0.00021307437
136	0x39251249	0.00015742438
137	0x38bc886a	8.989948e-05
138	0xb98074ec	-0.00024501176
139	0x390dc770	0.00013521104
140	0x38141d54	3.5313264e-05
141	0x3914e0ed	0.00014198171
142	0x39623811	0.00021573926
143	0xb9a20a60	-0.00030906778
144	0xb94dc88a	-0.0001962503
145	0xb8c0ee44	-9.199654e-05
146	0xb8bb6b8c	-8.936887e-05
147	0x3935d6db	0.00017341545
148	0x37240258	9.775707e-06
149	0xb947a9f5	-0.00019041433
150	0xb969940b	-0.00022275762
151	0xb811d424	-3.4768265e-05
152	0x3918f136	0.00014585708
153	0x38695a40	5.563558e-05
154	0x3903f308	0.0001258367
155	0xb89d3cb1	-7.497648e-05
156	0xb8ed05d4	-0.00011302126
157	0xb6be4575	-5.670527e-06
158	0x3893bcc0	7.044664e-05
159	0x38e88610	0.00011087593
160	0xb8064af4	-3.2017895e-05
161	0x388cfb18	6.72249e-05
162	0x3962578d	0.00021585655
163	0xb7932638	-1.7541563e-05
164	0xb9e54ac3	-0.00043733986
165	0xb9b565cc	-0.00034598855
166	0xb9b75044	-0.00034964283
167	0x38aaece3	8.150355e-05
168	0xb8b0beb2	-8.427854e-05
169	0x3910bb6c	0.0001380273
170	0xb9897ee5	-0.0002622522
171	0xb8d53ad4	-0.00010167589
172	0x38a692f1	7.942867e-05
173	0x396a3bc0	0.00022338238
174	0xb864f270	-5.4585224e-05
175	0xb9699610	-0.00022276514
176	0x389b8470	7.415644e-05
177	0x36bff6c0	5.720969e-06
178	0xb6935ba0	-4.391608e-06
179	0x3902c73d	0.00012471988
180	0xb922f41a	-0.00015540459
181	0xb9ae979a	-0.00033300818
182	0xb9ab5f56	-0.00032686692
183	0xb93bbf17	-0.00017904896
184	0xb941f784	-0.00018498121
185	0xb9a101d9	-0.0003070969
186	0x396d62be	0.00022638866
187	0x393e48a8	0.00018146879
188	0x38fe8e7a	0.00012138202
189	0xb9bc68ae	-0.00035936147
190	0x38346b24	4.3015127e-05
191	0x39272f2c	0.00015943934
192	0xbaadd2b0	-0.0013261642
193	0xba9cf18f	-0.0011973846
194	0xbab12544	-0.0013515134
195	0xbacfc1f8	-0.0015850654
196	0xba9da0b0	-0.0012026038
197	0xbac2309d	-0.0014815513
198	0xba9a701f	-0.0011782682
199	0xbacddf22	-0.0015706758
200	0xba9bdcaa	-0.0011891325
201	0xbaafc163	-0.0013409074
202	0xbaa07364	-0.001224142
203	0xbaa56c5c	-0.0012620795
204	0xbac19112	-0.0014767966
205	0xbac8a476	-0.0015307802
206	0xbab23e3e	-0.0013598872
207	0xbabf7fe7	-0.0014610261
208	0xb95015de	-0.00019844572
209	0xb8fafa44	-0.000119675446
210	0x37846e90	1.578711e-05
211	0x36191380	2.2810127e-06
212	0xb8457e18	-4.7085894e-05
213	0x38354cf0	4.3225416e-05
214	0xb99e03b4	-0.00030138867
215	0xb7a90640	-2.014928e-05
216	0xb7eb4090	-2.8044247e-05
217	0xb99a179a	-0.00029390753
218	0x3929c428	0.0001619017
219	0xb7ae9920	-2.081372e-05
220	0xb8ce8cd2	-9.849075e-05
221	0xb8fdf440	-0.00012109475
222	0xb8b7f444	-8.771618e-05
223	0xb92b5488	-0.00016339321
224	0xb998c92a	-0.00029141578
225	0x38f93acb	0.00011884196
226	0xb992264d	-0.00027875826
227	0xb97ac288	-0.00023914326
228	0xb97f92bc	-0.00024373358
229	0x39c1462e	0.00036864117
230	0xb9249f46	-0.00015699593
231	0xb980ee5e	-0.0002459166
232	0xba14c4ea	-0.00056750944
233	0xb8c5f708	-9.439705e-05
234	0xb9de06cb	-0.000423482
235	0xb9ca964c	-0.00038640422
236	0xb9bb467e	-0.0003571994
237	0x37e077dc	2.6758695e-05
238	0xb994ffe8	-0.00028419425
239	0x36ff2cc0	7.604802e-06
240	0xb8c406ea	-9.347296e-05
241	0xb9789d17	-0.00023709644
242	0xb80ee027	-3.4064196e-05
243	0x38346322	4.300767e-05
244	0xb8c139c2	-9.2137154e-05
245	0xb90d719e	-0.00013489134
246	0x38a240a8	7.736805e-05
247	0x3951e018	0.00020015275
248	0xb9707e28	-0.0002293518
249	0xb98a084b	-0.0002632759
250	0xb97cc6ee	-0.000241067
251	0xb9d1e52d	-0.00040034336
252	0x395cedcc	0.00021069421
253	0xb8a83162	-8.0200625e-05
254	0xb76fd8bc	-1.42959725e-05
255	0xb9345407	-0.0001719744

momentum_buffer f4 [100]
0	0xbb23512c	-0.0024920208
1	0xba58cd40	-0.0008270331
2	0xb90358fc	-0.00012526283
3	0xba43c4ef	-0.0007468005
4	0xba021d32	-0.0004963457
5	0xbb345fd6	-0.0027522943
6	0x3a960840	0.001144655
7	0xbb3db60a	-0.0028947615
8	0xb6d6c300	-6.400398e-06
9	0x3b6a4b44	0.0035750428
10	0xba953f18	-0.0011386601
11	0x3a3d6310	0.00072245393
12	0xbb08fb94	-0.0020901905
13	0xbb2ff406	-0.002684833
14	0x3a554fca	0.00081371947
15	0xb8133e80	-3.510574e-05
16	0xbac23812	-0.0014817736
17	0xba3ba812	-0.00071585283
18	0xbb8fbf70	-0.004386835
19	0xba8b1edb	-0.0010614054
20	0xba30d316	-0.00067453214
21	0xbb1af12e	-0.002364229
22	0x3983fda0	0.00025175232
23	0xba2cc3e8	-0.00065904716
24	0xb89a2ba0	-7.351418e-05
25	0x3ad460b2	0.0016203134
26	0xb9c1dbcc	-0.0003697559
27	0x3b4fc81a	0.0031704963
28	0x3a6791fc	0.0008833704
29	0xba12b006	-0.00055956875
30	0x3a82edba	0.0009989061
31	0xbadb6e63	-0.0016741272
32	0x3a747410	0.0009325156
33	0x3bb6e04a	0.0055809366
34	0x3b6a5710	0.003575746
35	0x39af7919	0.00033468826
36	0xba05d3a0	-0.0005105082
37	0xbb0c9b0a	-0.0021454715
38	0x3ab017ba	0.0013434805
39	0x3a58fe2c	0.00082776207
40	0xbaec2f1c	-0.0018019411
41	0x3ad5440c	0.001627089
42	0xbb533185	-0.003222556
43	0xbb5b5657	-0.003346821
44	0x3a5d4ff4	0.0008442395
45	0xbbb893f6	-0.0056328727
46	0x3b5b0541	0.003341988
47	0xba2330de	-0.00062252383
48	0xbb88267c	-0.0041549783
49	0xb972bed0	-0.00023150002
50	0x3a44791b	0.0007494853
51	0xbba182e2	-0.0049289325
52	0xbaffd2a5	-0.0019517733
53	0xbb163a52	-0.0022922945
54	0xbb90cd40	-0.004418999
55	0x397049f6	0.00022915736
56	0x3aa927a1	0.0012905487
57	0x3b60fadf	0.0034329218
58	0x3b239bef	0.002496477
59	0x3b616e54	0.0034398036
60	0x3bd42e64	0.0064752568
61	0xbbb84863	-0.0056238635
62	0xb96ba3d0	-0.00022472371
63	0xbb5cb48d	-0.0033676953
64	0xbb09e353	-0.0021040037
65	0x3aba5118	0.0014214842
66	0x3a886ad8	0.0010407818
67	0x39d1a1de	0.00039984187
68	0xbb4d0779	-0.0031284972
69	0x3b850144	0.0040589888
70	0x3aabbb1f	0.0013102031
71	0x3a1884dd	0.0005818138
72	0xbab5c480	-0.0013867766
73	0xbbb3945c	-0.0054803323
74	0x3a972100	0.001153022
75	0x3aeeb922	0.0018213133
76	0x3ac479b6	0.0014989886
77	0xba5a0798	-0.00083171716
78	0x3a1ecdba	0.00060578773
79	0xb9a5865e	-0.00031571364
80	0xbac69e2b	-0.0015153339
81	0xbb239b0d	-0.0024964244
82	0xba9988db	-0.001171376
83	0x3a4b0ef4	0.00077460636
84	0xbb160c92	-0.0022895676
85	0xbb277cdc	-0.00255566
86	0xb9de6828	-0.00042420742
87	0x3a9051c0	0.0011010692
88	0x3ac07d32	0.0014685749
89	0xbaa53b33	-0.0012606144
90	0x3af70e33	0.0018848836
91	0x3a47f8e8	0.00076283375
92	0xbb481d28	-0.0030534957
93	0xb9889f03	-0.00026058414
94	0x3ac8833b	0.0015297899
95	0xbba92a0c	-0.005162483
96	0xbb08fa0f	-0.0020901
97	0xbb44314b	-0.0029936607
98	0x39654d16	0.00021867859
99	0xb98ae6e0	-0.00026493426

momentum_buffer f4 [50, 100]
0	0x3a5601e9	0.0008163737
1	0x3bc30ad5	0.005952219
2	0x3b1aa7ee	0.002359863
3	0xba9b85f5	-0.0011865484
4	0xbb701dbf	-0.0036638824
5	0xba88f5d2	-0.0010449237
6	0x3ba83765	0.0051335567
7	0x3afe36b9	0.0019394971
8	0x3ba484fa	0.005020735
9	0x39cfd1a5	0.00039638314
10	0x3b001081	0.0019541087
11	0xbb4d93dc	-0.0031368649
12	0x3b427d3c	0.0029676696
13	0x3a956e5c	0.0011400688
14	0x3b220c1c	0.0024726456
15	0xbac6b730	-0.0015160795
16	0xbb8336b6	-0.004004325
17	0xbbbf7359	-0.005842608
18	0xbaa9af84	-0.0012945984
19	0xbb135e36	-0.0022486574
20	0xbbb2090b	-0.005433207
21	0xbb8ddda1	-0.0043293987
22	0xb9aec3af	-0.00033333662
23	0xbab17474	-0.0013538734
24	0x3b4a0870	0.0030827783
25	0x3b21bc38	0.0024678838
26	0x3bd41ec3	0.0064733936
27	0x3b7d137e	0.0038616355
28	0x3b6df33b	0.0036308307
29	0x3b34a8d9	0.0027566461
30	0xbafb40f0	-0.0019169133
31	0xb990d5db	-0.00027625155
32	0x3b89e3b3	0.004208052
33	0xbba0790d	-0.004897243
34	0x3b50e585	0.0031875086
35	0x3b055600	0.002034545
36	0xba88fd26	-0.0010451421
37	0xbb1f901a	-0.0024347366
38	0xbaa40617	-0.0012514022
39	0xba72aa6e	-0.00092569634
40	0xb940b26a	-0.00018377011
41	0x3b0773b2	0.0020668325
42	0xbb54a30e	-0.003244582
43	0xbbef9f51	-0.007312693
44	0xbbd72e5c	-0.0065668058
45	0xbae082a0	-0.0017128773
46	0xbb8a9f3b	-0.0042304075
47	0x3ba238cf	0.00495062
48	0xbaa6ce6c	-0.0012726313
49	0xbb0ef0c2	-0.0021810983
50	0xb97a4346	-0.00023866919
51	0x3b9344ae	0.0044942712
52	0x3b3a9d55	0.0028475125
53	0x39303a7b	0.00016806454
54	0x3b6f3924	0.0036502564
55	0x3a785b58	0.00094740605
56	0x3b09ce0c	0.0021027355
57	0xb8bee2de	-9.102163e-05
58	0xba951eee	-0.0011377016
59	0x3b317834	0.0027079703
60	0xbacb018e	-0.0015488134
61	0x3b698740	0.0035633594
62	0x3988e023	0.00026106936
63	0xba181b7e	-0.00058024365
64	0xbb06d377	-0.002057282
65	0x3ba6206b	0.0050697825
66	0xbbf96c06	-0.0076117544
67	0x3bb6850a	0.0055700587
68	0xbb895c54	-0.0041919146
69	0xb9c20b20	-0.00037010852
70	0x3bbaa330	0.005695723
71	0x39033992	0.0001251458
72	0xbab92fe4	-0.0014128652
73	0xbbc34b52	-0.0059599066
74	0xb98f88d1	-0.00027377022
75	0x3bf16fac	0.0073680487
76	0xbabf2426	-0.0014582917
77	0x3a2f4252	0.0006685603
78	0xbaf501a0	-0.0018692501
79	0x3a8752a0	0.0010324307
80	0x3b777408	0.003775837
81	0xbba18ca5	-0.004930096
82	0x3a8c928f	0.001072483
83	0x3af6ca44	0.001882859
84	0xbaf715be	-0.0018851084
85	0xbb2e6877	-0.002661256
86	0xbb2d90d7	-0.0026484036
87	0x3ad32564	0.0016109166
88	0x3b6c1821	0.0036025124
89	0xb9c4d3fa	-0.00037541968
90	0x38f9bdb0	0.00011908577
91	0xbbe82d1d	-0.007085456
92	0xbb930391	-0.004486509
93	0xbaa8a37d	-0.0012866106
94	0x3afb08d9	0.0019152417
95	0x3b4f2a2d	0.0031610832
96	0xbc1f391e	-0.009718208
97	0xbbb49157	-0.00551049
98	0x3a6706f0	0.00088129845
99	0x3b973ce2	0.004615412
100	0x3a527be7	0.0008029327
101	0xbb371f92	-0.0027942401
102	0xb9f4433e	-0.00046589406
103	0xba6d0454	-0.00090414775
104	0x3a9bcbdb	0.0011886315
105	0x3703cc1f	7.855734e-06
106	0xba8ad441	-0.0010591821
107	0xb98d1d85	-0.0002691561
108	0xba5f023d	-0.00085071084
109	0xb93f401c	-0.00018239062
110	0xb9b62d00	-0.00034747273
111	0x3af2cb93	0.0018523805
112	0xba4960bf	-0.0007681958
113	0xba285c9a	-0.000642249
114	0xb98b7caa	-0.00026605028
115	0x3a59c318	0.00083069643
116	0x3a927972	0.001117511
117	0x3b68323b	0.003543033
118	0xb7976c20	-1.8050952e-05
119	0x3aa9a165	0.0012941776
120	0x3b0df780	0.0021662414
121	0x3b02fb7c	0.0019986322
122	0x38888da4	6.511368e-05
123	0xb93f1a74	-0.00018225034
124	0xbaab54aa	-0.0013071497
125	0xba998878	-0.0011713644
126	0xbb53fe9c	-0.0032347804
127	0xbb34062a	-0.0027469494
128	0xba9ca904	-0.0011952226
129	0xba28e702	-0.0006443114
130	0x3a165f44	0.00057362416
131	0x39186749	0.00014534326
132	0xbab04a05	-0.0013449794
133	0x3a826d4c	0.0009950786
134	0xbb10ad71	-0.0022076035
135	0xba75950e	-0.0009368219
136	0x3a75e3f3	0.00093799754
137	0x3a8f196a	0.0010917608
138	0xb9c5dc96	-0.00037739117
139	0x3a69b3ba	0.0008915026
140	0x3a4dc99e	0.00078501727
141	0xba141e3c	-0.0005650257
142	0x3b19fc49	0.002349632
143	0x3b5efdec	0.003402586
144	0x3b25b232	0.0025283215
145	0x3ac0510a	0.0014672589
146	0x3af8f84b	0.0018994896
147	0xbadde3ea	-0.0016928886
148	0x3aca871b	0.0015451642
149	0x3a398e77	0.0007078419
150	0x3a218061	0.00061607925
151	0xb9fa22b7	-0.0004770958
152	0xbb3fde8a	-0.002927693
153	0xb87fbc46	-6.097208e-05
154	0xb9cc44ce	-0.00038961176
155	0xba2edd56	-0.0006670555
156	0xbaa29818	-0.0012404947
157	0x3a336f75	0.00068449165
158	0xb78f17b7	-1.7057971e-05
159	0xbaeaf31e	-0.0017925238
160	0x393011cb	0.00016791296
161	0xba87ddc6	-0.0010365776
162	0xb90af7ae	-0.00013252973
163	0xb9792ed6	-0.00023763938
164	0x3a6b5118	0.00089766225
165	0xba8ca5c6	-0.0010730557
166	0x3b46afd0	0.0030317195
167	0xbadcf9ae	-0.0016859078
168	0x3afdee7e	0.0019373444
169	0x39dd1e92	0.0004217518
170	0xbb25db2a	-0.0025307634
171	0xba803fbc	-0.0009784619
172	0x3a00e3af	0.000491674
173	0x3aec0f04	0.0018009846
174	0x39e13cd1	0.00042960656
175	0xbb716770	-0.0036835335
176	0xb9626bc6	-0.00021593188
177	0xb978516b	-0.00023681454
178	0x3a5ca28c	0.00084165554
179	0xba2384a2	-0.00062377204
180	0xbad49b84	-0.0016220664
181	0x3b08c5ce	0.0020869854
182	0xba7de50f	-0.00096853165
183	0xba84c6b5	-0.001013002
184	0x3a31dfe6	0.00067853776
185	0x3a04bf66	0.0005063921
186	0x3b1c6169	0.0023861772
187	0x390ab068	0.00013226422
188	0xbaad9528	-0.0013243305
189	0x3984d5f2	0.00025336404
190	0x3a106980	0.0005508885
191	0x3b5174b6	0.0031960434
192	0x3abf02db	0.0014572995
193	0xb9a7c895	-0.00032002167
194	0xba2cd749	-0.0006593359
195	0xbad50a76	-0.0016253728
196	0x3b8e280b	0.0043382696
197	0x3ae388a8	0.0017359452
198	0xba561232	-0.00081661635
199	0xbb019952	-0.0019775224
200	0xba87a567	-0.0010348976
201	0xba5b6d78	-0.0008370499
202	0xbac908ba	-0.0015337684
203	0x3a814748	0.0009863162
204	0x3aff7d9d	0.0019492392
205	0x39218360	0.00015403097
206	0xbb63a9c4	-0.003473864
207	0xba2ea1a8	-0.0006661662
208	0xbb354dc6	-0.0027664765
209	0xb9c3d8bd	-0.0003735478
210	0xbaba68ae	-0.0014221871
211	0x3a9ddfe6	0.0012044876
212	0xba551acc	-0.0008129298
213	0xba848e6e	-0.0010113248
214	0xbaede47b	-0.0018149758
215	0x3a074db1	0.0005161418
216	0x3aac3742	0.0013139027
217	0x3aabdddc	0.0013112384
218	0x3a898443	0.0010491688
219	0x39f62daf	0.00046954813
220	0x3a85f522	0.001022015
221	0x3adedc99	0.0017002999
222	0xb9a4edf4	-0.00031457806
223	0x3a916d1d	0.001109514
224	0xba9e4efe	-0.0012077985
225	0xba8419ce	-0.0010078491
226	0xbb0091cf	-0.0019618159
227	0xba4b471c	-0.00077544316
228	0xbadd3e5b	-0.0016879545
229	0xbacaf2bd	-0.0015483719
230	0x3ac3918c	0.0014920696
231	0xba1d9558	-0.00060113287
232	0xbb2b5bc4	-0.0026147226
233	0x3b0b59e4	0.0021263296
234	0xb83eaf40	-4.5462744e-05
235	0xb92c9330	-0.0001645803
236	0xb9277ef8	-0.0001597366
237	0x3a5ef9ba	0.000850584
238	0x39c42aa0	0.0003741579
239	0xba183806	-0.0005806688
240	0x3912f7a0	0.00014015893
241	0x380af500	3.3129938e-05
242	0x3a9a9b2f	0.0011795516
243	0x3b16af84	0.00229928
244	0x3b4c642a	0.0031187632
245	0xb8c45fa5	-9.3638235e-05
246	0x3a1b7474	0.00059301336
247	0xbb0d12d8	-0.0021526124
248	0x38beecbe	9.104003e-05
249	0x3a3a230e	0.00071005605
250	0xb9b34768	-0.00034194742
251	0xbb2f845d	-0.0026781776
252	0x3a4e1d72	0.0007862664
253	0xb918e5a3	-0.00014581396
254	0xbb0f8ef1	-0.0021905268
255	0x39ca72b2	0.00038613897

momentum_buffer f4 [50]
0	0xbc6f7451	-0.014615134
1	0x3c06912a	0.008213321
2	0x3b889eac	0.004169306
3	0xbb7c212f	-0.0038471927
4	0xba371420	-0.0006983895
5	0x3c1bf334	0.009518433
6	0xbb044903	-0.002018512
7	0x3b824a80	0.0039761662
8	0x3b8b5e18	0.00425316
9	0xbb056ec4	-0.002036021
10	0xbbe6ede8	-0.0070474036
11	0xbcb2d6f2	-0.02183101
12	0xbc738bd4	-0.014864881
13	0xba8e34be	-0.0010849459
14	0xba0352ec	-0.000500961
15	0x39d41f6c	0.00040459202
16	0xbc52c02b	-0.012863199
17	0xbab4cdc6	-0.0013794235
18	0xbc7a180a	-0.01526452
19	0xbbcc38fa	-0.006232378
20	0xbbe51d64	-0.006992029
21	0xbc53c1fc	-0.012924667
22	0x3b290312	0.0025789184
23	0xb9e3ee48	-0.00043474347
24	0x3bcb29e1	0.0062000607
25	0x3b36d0de	0.002789549
26	0xba400f90	-0.0007326538
27	0xbb935447	-0.0044961306
28	0xba49c8a0	-0.0007697437
29	0x3c0e39fc	0.008680817
30	0xbb54cbf4	-0.0032470198
31	0x3c5fd9ad	0.013662738
32	0x3c51c173	0.01280247
33	0xbc0b16da	-0.008489335
34	0x3a93874c	0.0011255532
35	0xba23c2b9	-0.00062469725
36	0x3b8729fb	0.0041248775
37	0xbb70092e	-0.0036626565
38	0x3a117a40	0.00055495277
39	0x3b97510e	0.004617817
40	0xba2d3310	-0.0006607035
41	0xbb47e59c	-0.0030501848
42	0x3a831390	0.0010000337
43	0xbb4a38dc	-0.0030856645
44	0xbb8a2089	-0.0042153043
45	0xbc0d9e6e	-0.00864373
46	0x38f5c7c0	0.00011719717
47	0xbbe7c9eb	-0.007073631
48	0xbac7b15a	-0.001523535
49	0x3a492d20	0.00076742657

momentum_buffer f4 [10, 50]
0	0x3ae06b78	0.0017121872
1	0xbb43ef8c	-0.002989742
2	0xbb45cb08	-0.003018083
3	0xbb0fe128	-0.0021954272
4	0xbb786b04	-0.0037905583
5	0x39d9588a	0.00041455432
6	0xb8fc76c0	-0.00012038415
7	0x3afee991	0.001944827
8	0x3ac7ee60	0.0015253536
9	0xbb8ce272	-0.0042994553
10	0xbb251a53	-0.0025192692
11	0xbaec08b4	-0.0018007965
12	0xbb404ea2	-0.0029343744
13	0x38c4c080	9.381864e-05
14	0x3a3ff506	0.0007322583
15	0xbb68843c	-0.0035479208
16	0x3b431af6	0.0029770709
17	0xbb461148	-0.0030222703
18	0xba90d948	-0.0011051083
19	0x3aed28ec	0.0018093861
20	0x3bb9d2b7	0.005670871
21	0xbb51f731	-0.0032038207
22	0x3a9c41f6	0.0011921513
23	0xbb8240ff	-0.0039750333
24	0x3adb7dde	0.0016745885
25	0xb9208460	-0.00015308103
26	0x39e90800	0.00044447184
27	0xbb0ac88c	-0.0021176664
28	0x3b169564	0.0022977227
29	0x3902d690	0.00012477697
30	0xb74f2b00	-1.2348173e-05
31	0xbb54c634	-0.003246677
32	0xbb8d35be	-0.004309385
33	0x3b9b8052	0.0047455216
34	0xbb1e0e51	-0.002411742
35	0x3bb1799f	0.0054161097
36	0x3ad78b10	0.0016444642
37	0x3a99251f	0.0011684037
38	0x3a8001b2	0.000976613
39	0xbb100b08	-0.0021979231
40	0xbb6c38c0	-0.0036044568
41	0xbad9d382	-0.001661882
42	0x3ba1ab74	0.004933769
43	0x3b36a9b1	0.002787214
44	0x3b3fd316	0.0029270104
45	0x3b8068bb	0.003918735
46	0x3a8c47ea	0.0010702584
47	0x3b19f056	0.0023489199
48	0xbaaab0d4	-0.001302267
49	0xbb185e8e	-0.0023249718
50	0xbc967dc6	-0.01837052
51	0xbbb1a203	-0.0054209246
52	0x3c6e6577	0.014550558
53	0x3c6e93b4	0.014561582
54	0x3c5fb804	0.013654713
55	0x3b08ad92	0.002085541
56	0xb9ca17c5	-0.00038546152
57	0x3bfb41f5	0.007667775
58	0xbb4d8e51	-0.0031365345
59	0x3c417e60	0.011809915
60	0xbb9ef408	-0.004850868
61	0x3c50427a	0.012711162
62	0x3bf9057a	0.00759953
63	0xbc276748	-0.010217495
64	0x3bcccf4c	0.0062502977
65	0x39cb3761	0.00038760438
66	0xbbd00db5	-0.0063492903
67	0x3c87b853	0.016567385
68	0x3c266be0	0.010157555
69	0xbb693b35	-0.0035588269
70	0xbbff8e3e	-0.007798939
71	0x3acafc14	0.0015486502
72	0xbb13325a	-0.0022460432
73	0xbb24f8d6	-0.0025172732
74	0x3c2d5cc3	0.010581198
75	0xbc3e3101	-0.011608363
76	0xbc51e5b2	-0.012811111
77	0x3c25e16e	0.010124547
78	0xbbfac19e	-0.0076524755
79	0x3be21a48	0.0069001056
80	0x3c027982	0.00796354
81	0xbb75146a	-0.00373962
82	0xbbd19d65	-0.0063969367
83	0xbbbe5f58	-0.0058097057
84	0x3b6cfa66	0.0036159991
85	0xbc1f9136	-0.009739211
86	0xbcb0c4f4	-0.02157829
87	0xbb8f5102	-0.0043736706
88	0xbbede8de	-0.007260426
89	0xbb4e28e8	-0.0031457487
90	0x3c37e9fa	0.011225218
91	0x3b4a4258	0.0030862298
92	0xbbee45d8	-0.0072715096
93	0xbbdddfa0	-0.006771043
94	0x3b70aa78	0.00367227
95	0x3bd0dc02	0.006373883
96	0x3b7dc52e	0.0038722265
97	0xbb64f766	-0.00349375
98	0x3bef705e	0.0073070964
99	0x3c4240aa	0.011856237
100	0x3c630b99	0.013857746
101	0x3b18d60a	0.0023320937
102	0xbc595b9c	-0.01326647
103	0xbc3e4c6e	-0.011614902
104	0xbc562c7e	-0.013072131
105	0xba630434	-0.0008659989
106	0x3a2c4502	0.0006571562
107	0xbb8e5854	-0.0043440256
108	0x3a306081	0.00067282474
109	0xbc26aaab	-0.010172526
110	0x3b4c72a5	0.0031196263
111	0xbc17dcb5	-0.009268929
112	0xbc15e7e4	-0.009149525
113	0x3c078c72	0.008273231
114	0xbb959460	-0.004564807
115	0xbabd90a3	-0.0014462661
116	0x3bf5d69e	0.007502391
117	0xbc59c6f6	-0.013292065
118	0xbc0c6270	-0.008568391
119	0x3b90881e	0.0044107577
120	0x3c1275dc	0.008939233
121	0xbb10cc0e	-0.0022094282
122	0x3b164e79	0.0022934957
123	0xb901e912	-0.00012389224
124	0xbbf46492	-0.007458278
125	0x3c126b8c	0.008936774
126	0x3c1e1c3e	0.009650288
127	0xbc05098b	-0.008119951
128	0x3bec4c68	0.007211257
129	0xbba2d166	-0.00496881
130	0xbbabe5c4	-0.005245896
131	0x3b8f4dca	0.004373287
132	0x3b6558e9	0.0034995622
133	0x3beda290	0.007252045
134	0xbb0e1da4	-0.0021685148
135	0x3c18fcd5	0.009337624
136	0x3c7e3aa4	0.015516911
137	0x3b3b0e46	0.0028542443
138	0x3bc397aa	0.0059690075
139	0x3b5c7f24	0.0033645118
140	0xbc3e6d5b	-0.011622752
141	0xbb77683c	-0.0037751338
142	0x3bb55814	0.0055341814
143	0x3bbe3050	0.005804099
144	0xbb7a2fac	-0.0038175387
145	0xbbaf9f68	-0.005359579
146	0xbb6ae6d6	-0.0035843155
147	0x3b5b3dad	0.003345351
148	0xbbacf4b0	-0.0052781925
149	0xbc20394e	-0.0097792875
150	0xbc4e0f88	-0.012576945
151	0x3aa33ac9	0.0012453432
152	0x3c989be1	0.018629016
153	0x3c62a612	0.01383354
154	0x3c7f6c30	0.015589759
155	0xb9eb0984	-0.00044829783
156	0xbb3c8728	-0.0028767083
157	0x3aa4a6fa	0.001256197
158	0x397984d0	0.00023795967
159	0x3c5f6354	0.0136345215
160	0x3b1d2978	0.0023981016
161	0x3c07225a	0.008247936
162	0x3c6bd67b	0.014394398
163	0xbb976549	-0.0046202284
164	0x3b541b08	0.0032364745
165	0x3b9ffc91	0.004882403
166	0xbc3879f6	-0.0112595465
167	0x3c7851ba	0.015156204
168	0x3c04d234	0.008106757
169	0xbbb2c4d6	-0.0054555936
170	0xbc848534	-0.016176797
171	0x3bb16424	0.005413549
172	0xbb984880	-0.0046473145
173	0x3bdaf27a	0.0066817375
174	0x3afcc66e	0.0019285211
175	0xbb8db3f3	-0.00432443
176	0xbc22c807	-0.009935386
177	0x3c2a4a68	0.010393716
178	0xbc18ab1a	-0.009318138
179	0x3b17a31b	0.002313799
180	0x3b86ed43	0.0041176393
181	0xbacc3bb2	-0.0015581755
182	0x3b1ad411	0.0023624937
183	0xbc70575f	-0.014669268
184	0x3b52a64e	0.0032142582
185	0xbc5cd2c3	-0.013477984
186	0xbc6cf3b3	-0.014462399
187	0xbb76ecec	-0.0037677838
188	0xbbc0492b	-0.0058680973
189	0xbb2d0640	-0.002640143
190	0x3c95441e	0.018220957
191	0x3bbb4e1b	0.005716098
192	0xbc487ffc	-0.012237545
193	0xbbfaeaa2	-0.007657365
194	0x3b23cdeb	0.0024994563
195	0xba268645	-0.0006352405
196	0x3a734feb	0.0009281623
197	0xbb9e7a6e	-0.004836372
198	0x3bb10a07	0.0054028067
199	0x3c27ccab	0.010241668
200	0xbbbd16b8	-0.0057705306
201	0xba2e9554	-0.0006659825
202	0x3bacea0a	0.005276923
203	0x3b4cef44	0.0031270543
204	0x3ba23274	0.004949862
205	0xba291bbb	-0.00064509705
206	0x39fbc7ba	0.0004802326
207	0x3b0e4b2a	0.0021712282
208	0xb9ab93e4	-0.0003272585
209	0x3b62a864	0.0034585232
210	0xbaacdc00	-0.0013188124
211	0x3b77d738	0.003781749
212	0x3b7600d4	0.0037537115
213	0xbb50e204	-0.0031872997
214	0x3aa16820	0.0012314357
215	0xb9aa1f53	-0.00032448265
216	0xbb73f0ca	-0.003722238
217	0x3bdc38d8	0.0067206435
218	0x3b3c9fd0	0.002878178
219	0xbad824d6	-0.001649047
220	0xbb59084a	-0.0033116513
221	0x3adcc3b0	0.0016842987
222	0xba603e30	-0.00085541885
223	0x3a9b15b4	0.001183203
224	0x3b45e28a	0.0030194842
225	0xbbbb22fa	-0.0057109566
226	0xbb6e10d0	-0.003632594
227	0x3b78ecec	0.0037983013
228	0xbb5c5810	-0.0033621825
229	0x3afa01b8	0.0019073999
230	0x3ae839ac	0.0017717383
231	0xbaffae3c	-0.0019506882
232	0xba82b144	-0.0009971042
233	0xbb255f16	-0.0025233678
234	0x3b10bdba	0.0022085742
235	0xbb90d304	-0.0044196863
236	0xbbf8eb40	-0.0075964034
237	0xba8dc30a	-0.0010815572
238	0xbb18b0d6	-0.0023298762
239	0xbb153f0b	-0.0022773172
240	0x3b824dbc	0.003976552
241	0x3a917e52	0.0011100268
242	0xbb3e4290	-0.0029031374
243	0xbb277e0a	-0.0025557303
244	0x3aab4762	0.0013067538
245	0x3b13af92	0.0022535068
246	0x3ab55aec	0.0013836301
247	0xba729414	-0.0009253633
248	0x3aa797c0	0.0012786314
249	0x3b61f390	0.003447745
250	0x3c98754e	0.018610623
251	0x3bab9e5b	0.0052373833
252	0xbc7de831	-0.015497253
253	0xbc7dfdf2	-0.01550244
254	0xbc597661	-0.013272853
255	0xbb201e22	-0.0024432023

momentum_buffer f4 [10]
0	0x3bf21c20	0.0073886067
1	0x3d24e7ec	0.04026024
2	0xbcc8a8c3	-0.024494534
3	0x3ba201d2	0.0049440647
4	0x3c425152	0.011860209
5	0xbd3b8ef8	-0.045790642
6	0x3ce2e604	0.02769757
7	0x3d169346	0.036761545
8	0xbd16e80d	-0.036842395
9	0xbcafbde1	-0.021452846

conv1.0.weight f4 [10, 1, 5, 5]
0	0xbd4f4119	-0.05059919
1	0x3e0bf2ba	0.13666812
2	0x3dd86ea2	0.105679765
3	0xbdaee51e	-0.085397944
4	0xbe2d6b97	-0.16935574
5	0x3e1e0781	0.1543255
6	0x3d9b5f3b	0.07586523
7	0xbe011773	-0.12606601
8	0x3e47deb1	0.19518544
9	0x3dcc5438	0.09977001
10	0x3de98808	0.11402899
11	0xbd987c8f	-0.07445633
12	0x3de96a4c	0.11397228
13	0x3ce1ba01	0.027554514
14	0xbceafad9	-0.028684067
15	0x3c81ed83	0.015860325
16	0xbc9e4deb	-0.019324264
17	0xbe0c1c96	-0.1368278
18	0x3e115cf8	0.14195621
19	0x3d2d8acf	0.042368706
20	0xbcee24ef	-0.029070346
21	0xbbdab234	-0.0066740755
22	0x3dbb9b3d	0.09160469
23	0xbe00f591	-0.12593676
24	0x3d521a4b	0.051294606
25	0x3cff5165	0.031166742
26	0x3a962735	0.0011455776
27	0xbd649314	-0.055804327
28	0x3d999aa1	0.07500196
29	0xbe1bbb87	-0.15208255
30	0xbdd16165	-0.10223655
31	0x3e1e69db	0.15470068
32	0xbe30b43b	-0.17256252
33	0xbd01e71e	-0.03171455
34	0x3d2d559a	0.042317964
35	0xbb36b37d	-0.002787798
36	0xbe35ab97	-0.17741238
37	0xbda0ba23	-0.07848003
38	0xbaf2db54	-0.00185285
39	0x3e037380	0.12837029
40	0xbe566346	-0.20936307
41	0xbe165203	-0.14679722
42	0x3c08820a	0.008331785
43	0xbe02b6fd	-0.12765117
44	0xbe4dda9e	-0.20102927
45	0xbdc12ba6	-0.094321534
46	0x3d45f14a	0.048325814
47	0xbe27b9d5	-0.16379483
48	0xbe35e3d0	-0.17762685
49	0x3e068ad9	0.13138904
50	0xbe10c9cb	-0.14139478
51	0x3d1fea6a	0.039041914
52	0xbe08ba1d	-0.13352247
53	0xbc91770e	-0.017756965
54	0x3c1f3d7a	0.009719247
55	0xbe4240e1	-0.18970062
56	0x3d09833d	0.033572424
57	0xbda7a095	-0.081849255
58	0xbe1bfbb8	-0.15232742
59	0x3e0390dc	0.12848228
60	0x3de2106c	0.110382885
61	0x3df5fd46	0.12011199
62	0x3e1a9baa	0.15098444
63	0x3e3353db	0.17512457
64	0x3e16dcf9	0.14732732
65	0xbd2ca8f2	-0.042153306
66	0x3df545ad	0.1197618
67	0x3e3a13e5	0.18171652
68	0xbe3501dd	-0.17676492
69	0xbdb38f53	-0.08767571
70	0x3e1e25d3	0.15444116
71	0x3e07ac2b	0.1324927
72	0xbc429364	-0.011875961
73	0x3d411383	0.04713775
74	0x3c53cacf	0.012926771
75	0x3e45b6d4	0.19308025
76	0x3d4ad1ac	0.049516365
77	0xbde586b0	-0.1120733
78	0xbd969aed	-0.073537685
79	0xbd4cc451	-0.04999191
80	0x3dc0b3c6	0.09409289
81	0xbdf8f19c	-0.12155458
82	0xbd0bb726	-0.03411021
83	0x3db99a14	0.09062591
84	0xbe4c9512	-0.19978741
85	0x3c3c93cd	0.011509848
86	0x3dec3316	0.11533181
87	0x3d5194d6	0.05116733
88	0x3e21f8d4	0.15817577
89	0x3de401a6	0.11133127
90	0xbdc8cf58	-0.09805173
91	0x3d284d8e	0.041089587
92	0x3e5b06c2	0.21389297
93	0x3d9ab42c	0.07553896
94	0xbe21f3c8	-0.15815651
95	0xbd5462ae	-0.05185192
96	0x3cb40f70	0.021980017
97	0x3d4a9888	0.04946187
98	0x3b906350	0.00440637
99	0xbd97ca42	-0.074116245
100	0xbdc86244	-0.09784368
101	0xbd5f75cb	-0.054555696
102	0xbe19dc2e	-0.15025398
103	0xbd85f322	-0.065405145
104	0xbd873b7f	-0.06603145
105	0x3d899e46	0.067196414
106	0xbe24ef2b	-0.1610686
107	0x3e1da238	0.15393913
108	0x3e1c8eea	0.15288892
109	0x3dee2ab3	0.11629238
110	0xbdd622b3	-0.10455837
111	0xbdfddcfb	-0.12395664
112	0xbb8de0ec	-0.0043297913
113	0xbca6020b	-0.020264646
114	0xbd148638	-0.036260813
115	0x3e09f4f0	0.13472342
116	0x3e3fc31d	0.18726774
117	0xbe09daf8	-0.13462436
118	0xbd46607a	-0.04843185
119	0x3e137c52	0.14402893
120	0x3d8827e9	0.06648237
121	0x3e18bee8	0.14916575
122	0x3c76ce9d	0.015063909
123	0x3d4a5927	0.04940143
124	0x3e2cfb8f	0.16892837
125	0xbc4c7274	-0.01247846
126	0x3e11deff	0.14245223
127	0xbcda40c3	-0.026642209
128	0xbd67b708	-0.056571037
129	0xbe3d9732	-0.18514708
130	0x3c5c7c77	0.013457409
131	0x3e5d6eaa	0.21624246
132	0xbbdc0551	-0.006714501
133	0xbcad523c	-0.021157376
134	0x3caeb332	0.021325681
135	0xbde6cbeb	-0.11269363
136	0x3d8a0259	0.06738729
137	0x3db36e06	0.0876122
138	0xbe50fd0b	-0.20409028
139	0xbe0d52ab	-0.13801067
140	0x3e16ae32	0.14714888
141	0x3dd09838	0.101852834
142	0x3cbe1029	0.023201065
143	0xbd8149a4	-0.06312874
144	0x3dc161b1	0.09442461
145	0xbcdb1097	-0.02674131
146	0x3e3fc5df	0.18727826
147	0x3c814d44	0.015783913
148	0x3d377e06	0.04479792
149	0xbe2e6439	-0.1703042
150	0xbddfc0ab	-0.109254204
151	0x3d990c97	0.074731044
152	0x3d555a7f	0.052088257
153	0xbd612ae1	-0.054972533
154	0xbd49922f	-0.049211677
155	0x3e5c3fc9	0.21508707
156	0xbdae1375	-0.08499805
157	0xbd9f6d56	-0.07784526
158	0x3daab792	0.083357945
159	0x3e0c6223	0.13709311
160	0x3ddd1a08	0.10795981
161	0xbddcd8e5	-0.10783557
162	0xbd4b5950	-0.049645722
163	0x3d1138c1	0.035454515
164	0xbe468d10	-0.19389749
165	0x3e484be8	0.19560206
166	0x3e181ee5	0.14855535
167	0x3e48ab40	0.19596577
168	0x3e0906c1	0.13381483
169	0xbe1e66e4	-0.15468937
170	0xbd294a6d	-0.041330744
171	0xbe39b7e4	-0.18136555
172	0x3d07423f	0.03302216
173	0x3d853c11	0.065055974
174	0x3c0ded2b	0.008662502
175	0xbe3be027	-0.18347226
176	0xbd760901	-0.06006718
177	0x3d8a4641	0.06751681
178	0xbcf99004	-0.03046418
179	0x3e3ad18b	0.18243997
180	0xbde041b7	-0.10950034
181	0xbe17f075	-0.14837821
182	0x3e5005aa	0.2031466
183	0xbdf91a53	-0.12163224
184	0xbc95d668	-0.018290713
185	0xbdf669a3	-0.12031867
186	0xbd51b29b	-0.051195722
187	0x3d307544	0.043080583
188	0x3e11d245	0.14240368
189	0xbddf6edc	-0.109098166
190	0x3de0e891	0.109818585
191	0x3d585b6f	0.052821573
192	0x3e72bb9d	0.23704381
193	0xbd34597b	-0.044030648
194	0xbd9f5c49	-0.07781274
195	0x3df945c6	0.12171511
196	0x3e24e492	0.16102818
197	0x3e7323ff	0.237442
198	0xbe0bc386	-0.13648805
199	0xbd96e4b6	-0.07367842
200	0xbde383c7	-0.11109119
201	0x3e448476	0.19191155
202	0x3d7661db	0.060151916
203	0xbb36f718	-0.0027918275
204	0xbe0f12e1	-0.13972045
205	0xbcd1242f	-0.025529949
206	0x3daaf922	0.083482996
207	0x3d357082	0.04429675
208	0x3d973e05	0.07384876
209	0xbe1d756d	-0.15376826
210	0x3d02f3d7	0.031970825
211	0x3e3a7662	0.18209222
212	0x3e1b6261	0.15174247
213	0x3b9bf8ec	0.0047598984
214	0x3dff716e	0.12472807
215	0x3de5c1b1	0.11218584
216	0xbdf4cc95	-0.119530834
217	0x3e0f7acf	0.14011692
218	0x3e0175b8	0.12642562
219	0xbe49b02f	-0.19696115
220	0xbd86066a	-0.06544192
221	0xbe13f182	-0.14447597
222	0xbd86a40e	-0.0657426
223	0xbde59da9	-0.11211712
224	0xbdf4abb5	-0.11946813
225	0x3da34480	0.0797205
226	0x3ddc0c5d	0.107445456
227	0xbe22253a	-0.15834513
228	0xbe60a0dd	-0.21936364
229	0x3cb830a0	0.022484124
230	0x3d7ed918	0.062218755
231	0x3e075481	0.1321583
232	0x3dcd4fb9	0.100249715
233	0xbde866ba	-0.113477185
234	0xbe0a977b	-0.13534348
235	0x3c1d3f5d	0.0095976265
236	0xbc8ca7e0	-0.017169893
237	0x3e132713	0.14370374
238	0xbe759040	-0.23980808
239	0x3e10dab6	0.14145932
240	0x3d545dfa	0.051847436
241	0x3e3b6e89	0.18303885
242	0xbc38e576	-0.0112851765
243	0xbe6718cd	-0.22568054
244	0x3e16702e	0.1469123
245	0xbdb5a408	-0.08869177
246	0x3d8847be	0.06654309
247	0xbcda8706	-0.026675712
248	0xbe1c486b	-0.15262
249	0xbe047ef7	-0.12939058

conv1.0.bias f4 [10]
0	0xbe0d178d	-0.13778515
1	0x3dc2174d	0.094771005
2	0xbd90e976	-0.07075779
3	0x3d84c599	0.06483001
4	0x3e0e4c8d	0.1389639
5	0x3e19550b	0.14973848
6	0x3e06da78	0.13169277
7	0x3dd3db3d	0.10344551
8	0x3c7c1f27	0.015388287
9	0xbd586fe2	-0.052841075
